Projects/proj_sent_luca_vlad_gabriel/blstm_model.pth (torch, 855476 bytes, 13 tensors)

lstm1.weight_ih_l0 f4 [428, 300]
00000000: 4bcb 763c 366e 9b3d e070 bb3c d36e 06bc
00000010: 0ec6 86bd 1997 d43b 4644 66bc fce6 8fbd
00000020: 764d b23d 0ff8 14bd def7 0b3d a0c3 9a3d
00000030: 9a25 b63d ca3a a53d fff7 9f3c ed3d 083d
00000040: 346f 6b3d db6c 343d 1d0b b63d 88c3 6abd
00000050: ab5a a63c 6a2e 59bd 6743 95bd d17f 983d
00000060: 7071 b6bd 374b c0bd ae9a d13c 07f0 b83d
00000070: cefc ae3c 61f1 493b 784c adbd c9d0 c7bd
00000080: 083f 2cbb 5329 ba3d a844 893d a787 98bb
00000090: 9c1d 62bd 7d6c 713d 062e b4bd 11f0 79bd
000000a0: 7375 b3bd 766a b43d e554 2f3d 80bc 1b3c
000000b0: bbb8 0dbd 472c a3bd 3c6a ce3b b9ff 8bbc
000000c0: d546 9dbd 8438 fcbc 64ce c93a 46b9 7bbd
000000d0: 88d9 173c 40f5 c3bd 6672 59bd 4277 0f3d
000000e0: 3ef7 ac3c ac09 a5bd 3bec aabc 6e10 f5bc
000000f0: 1e98 2d3d 57d6 823d fafc 803d 2d3c af3d
00000100: 4a02 b23b 7d05 e93c eb55 593a cc1c d93c
00000110: 1957 9c3d 2840 9ebd 5154 66bc 0a0f 6dbd
00000120: 5d48 5ebd f658 043d 8d04 b43d 76f8 553d
00000130: ab73 a53d e2e3 ba3d 8ac6 ab3d 343c bd3c
00000140: 13bb fabc e727 8fbc 1a49 56bb e131 06bd
00000150: 9ef8 8f3d 8710 cb3b 8643 f8b9 e135 64bd
00000160: 6f30 1c3b a30c 853d 87e5 6b3b 6b70 463d
00000170: 0522 babc 7e91 b03d d28c 813d f159 5cbd
00000180: ae59 223c 1fb5 683c 693b 8d3c 98f1 3fbd
00000190: e45c 84bd 848c 093c c81c 803d d915 19bd
000001a0: ba6d c1bd f120 8c3d 91fd dd3c 1b65 0fbc
000001b0: c289 d1ba 0fec 2abc 0c8f d9bc dafb 88bd
000001c0: 8480 48bd de3b 523d 98e2 bb3d 101a 00bd
000001d0: c11e 5fbd 9475 08bd ffbb 61bc d004 9bbd
000001e0: df9e 84bc 397d 973d d5c8 babd 09ed 5c3d
000001f0: f69c d9bc a532 b83d 52ad 55bd 44d4 bf3d
00000200: d6d4 9c3d 4a1a 7cbd 0ba3 18bc 97ea 043d
00000210: bcc4 9d3d 9830 cc3b 6fe9 92bd 887f 6fbd
00000220: 8d39 b2bc 8ada b33d da3e 1e3d 70a6 bc3d
00000230: 7df9 bdbd c90b f3bc 5dca 8ebc 1433 4bbd
00000240: e3c2 acbd b0b3 3a3d f94a 57bd f429 973d
00000250: 75b8 a4bb d0bc a2bd 7e89 263d 6384 8e3d
00000260: e372 b5bd 1c5f 9cbd 0493 8ebd 922c bfbd
00000270: 3f1e 81bd 2fe9 973a 5d7d 21bd 61cf 34bd
00000280: fab6 4cbd 3dfc 283d 90e8 8f3d 0b0d bfbd
00000290: 2102 23bc c6a3 993d ccc3 9bbd b1c9 5dbd
000002a0: 0936 ae3d 7ee3 39bd 15bf a43d e894 af3d
000002b0: d6b0 dd3c f300 9a3d c61f 96bd e482 f63c
000002c0: 9d2b a23d 8d3c 623c 9a4d a8bd 7824 25bb
000002d0: b4b2 43bd 7e78 013c 7df3 573d d2c2 993d
000002e0: af1a 463d 9c1d b63d 0031 babd bb03 a4bd
000002f0: aa28 993d c49c aebd 7f8b 89bd e463 8d3d
00000300: fb2c 2c3d e946 1a3c fcbf 93bd 7799 263d
00000310: 02f7 91bd c3c3 f3bc 8c66 c3bc bbfa c4bd
00000320: e977 ec3c 3a8f 1abd 7901 0dbd 7fc4 83bd
00000330: 7863 703d 75e6 a5bd ab59 82bd b367 8a3d
00000340: b936 95bd 4992 93bd dc35 83bd 8ee6 bc3d
00000350: 995c 183d 416c a23d f28b dd3b 89c7 5c3c
00000360: 8c16 50bc 3d13 9f3d 593d 26bd 9164 1bbd
00000370: 2b20 703d 6d28 973d 2784 47bd 6eca f2bb
00000380: e210 173d 87ae 2cbd b712 c73d fcb3 5d3d
00000390: 2f21 99bd 2374 a0bd 7758 b5bb 0e82 83bc
000003a0: 4f0e 9b3d 2f64 f23b 63a3 d3bc d9a1 b03d
000003b0: 71fa 8f3b 6eac ba3d 7c31 833d d5ff ac3d
000003c0: 7147 1dbd 12ef c2bd 05c1 93bd d754 553d
000003d0: 6213 c7bc b243 c3bc 7842 953d 44ef 673d
000003e0: 229f c8bd 8a1b c6bd 61a4 283d 143a 9f3d
000003f0: 5056 783d ba32 be3d 6fea 5c3d 017e 8f3c
0.015063117 0.075893804 0.022880971 -0.0082051335 -0.06580745 0.006487739 -0.014054364 -0.07026479
0.08706181 -0.03636938 0.03417193 0.07556844 0.08893891 0.08067854 0.019527433 0.033262182
0.0574791 0.044049125 0.088888384 -0.05731538 0.020306906 -0.05302278 -0.072882466 0.07446254
-0.08908355 -0.09389346 0.025586452 0.090301566 0.021360781 0.003081404 -0.08461851 -0.097566195
-0.0026282687 0.09089913 0.06702548 -0.004654843 -0.05520402 0.058941353 -0.08797841 -0.06101996
-0.08762636 0.08809368 0.04280557 0.009505391 -0.0346 -0.079674296 0.006299285 -0.017089712
-0.07679526 -0.030788668 0.0015396592 -0.061455987 0.009268172 -0.09568262 -0.053087614 0.035025842
0.021113988 -0.080584854 -0.020864597 -0.02991506 0.0423814 0.06388538 0.062982515 0.085563995
0.005432402 0.028445 0.0008290696 0.02650299 0.076338 -0.077270806 -0.014058189 -0.05787567
-0.05426823 0.032311402 0.087899305 0.052238904 0.080787025 0.091254964 0.08387478 0.023099996
-0.030606782 -0.017475082 -0.003269738 -0.032762412 0.07029842 0.0061970386 -0.00047352555 -0.055715445
0.002383258 0.06496551 0.0035994963 0.048447054 -0.0227213 0.086215004 0.063256875 -0.053796712
0.009909077 0.014203339 0.017240243 -0.04686126 -0.0646303 0.008395318 0.062554896 -0.03737435
-0.09444757 0.068422206 0.027098449 -0.008752133 -0.001598649 -0.010432257 -0.026557468 -0.06688662
-0.048950687 0.051326625 0.09174079 -0.031274855 -0.05447269 -0.033315256 -0.013777732 -0.07569277
-0.016189037 0.07396931 -0.09120337 0.05393699 -0.026564103 0.08994035 -0.052167244 0.09366658
0.07657783 -0.06154851 -0.009316216 0.032450285 0.0770354 0.0062313788 -0.0717343 -0.058471233
-0.021755958 0.087819174 0.03863416 0.09211433 -0.09276102 -0.029668706 -0.017430479 -0.04960926
-0.08435609 0.04558152 -0.052561734 0.07381049 -0.005026872 -0.079461694 0.040658467 0.069588445
-0.088598035 -0.07635328 -0.06961635 -0.09334673 -0.06304597 0.001158988 -0.039426196 -0.044143084
-0.049979188 0.04125618 0.0702678 -0.093286596 -0.009949238 0.075019404 -0.07605705 -0.054147426
0.085064 -0.04538297 0.080442585 0.085733235 0.027061861 0.07519712 -0.07330279 0.03009171
0.07918475 0.013808382 -0.08217926 -0.002519874 -0.047777846 0.007902263 0.052722443 0.07507862
0.04836529 0.08892366 -0.09091377 -0.08008524 0.07478459 -0.085259944 -0.0671606 0.06903818
0.042035084 0.00941632 -0.072143525 0.0406737 -0.07127191 -0.029756432 -0.02385261 -0.096181355
0.028865771 -0.037734248 -0.034425233 -0.06433963 0.05868861 -0.08100597 -0.06364759 0.0675806
-0.07285828 -0.07205636 -0.06406757 0.09223662 0.037197683 0.07930804 0.0067610675 0.013475307
-0.012700688 0.07767341 -0.04058585 -0.037937704 0.058624428 0.073807575 -0.048710015 -0.0074093854
0.036881335 -0.04215863 0.097203664 0.054126725 -0.074770324 -0.07834651 -0.0055342275 -0.016053226
0.075710885 0.0073971967 -0.025834745 0.0862462 0.0043938686 0.091149196 0.06405923 0.084472336
-0.03839821 -0.09518255 -0.0721455 0.052082863 -0.024301235 -0.02383599 0.072880685 0.056624666
-0.09795977 -0.096732214 0.04117239 0.077747494 0.06062919 0.09287019 0.05393451 0.017516138

lstm1.weight_hh_l0 f4 [428, 107]
00000000: fb69 8d3c 8e29 bfbc fb40 8b3d 4769 7a3d
00000010: 2edd 493d 387c 74bd 0b37 133d 6b36 b4bd
00000020: f315 57bc 2865 02bd cef3 2ebd 8510 aabc
00000030: e38e d7bb 2c67 9a3d 002d e13b 5654 cabd
00000040: 0f29 353d ea45 9dbd 8405 3e3d de58 053d
00000050: 50b5 bebd 86c3 90bd d04c 6e3b ff96 8fbb
00000060: 0cb1 8c3d b401 933d 63cd 38bd 190e ad3d
00000070: 044e a9bc 025e 5abd a8e7 87bc e918 c63d
00000080: 9201 23bc 28a2 493d fc86 44bd 4566 ea3c
00000090: 03f6 863d ef97 86bc 79f6 b13b 58e1 6a3d
000000a0: 4f8e 95bc 4361 023c 35b3 eebc 650c 9a3d
000000b0: f22d 9abd afea 44bd 3fbd b73d f835 c83c
000000c0: 6230 c23d 9e7a 99bd 1c1a af3d bab2 6f3b
000000d0: 4e09 b9bc 512c ba3d f606 bdbd b616 7abd
000000e0: 1fc0 8c3d ee4e 19bd 0013 993d 5d48 823d
000000f0: 8422 81bc 63b0 c4bd 3cbe 623d 6d1e 4dbd
00000100: e509 3b3d f60f 65bb bf6c 9bbd ea5e 4e3c
00000110: 3b76 2bbd 83f1 c8bc 61c3 873d 9abc b6bc
00000120: 81e8 dd3b cf2f 003d 902e e03c 87b0 96bd
00000130: b2ae 84bd 4b52 92bc 665d a93d 8e03 ab3c
00000140: dfcd 89bd e5c3 9fbd 8c6d 9cbc 99aa 803c
00000150: 90e6 973d c28f 8abc 81ac 063d 39e0 d8bc
00000160: fc5b 843d 0090 ae3d c5b3 89bd 60be 8dbd
00000170: 3338 843d b7af c73c fd46 59bd f9fd bb3d
00000180: e5f8 bd3d fb91 a03c 1721 7a3d 69de 7d3d
00000190: 0456 ecbc 665c 3cbd fe55 ff3c cfde 7ebc
000001a0: cdac dcbc abb0 58bd eb4d b23d 2eaf 283d
000001b0: 694c 6bbc e56f 8abd 867d bd3b df10 263d
000001c0: f9b9 1f3d 4675 5e3d 6293 ba3d 26c5 08bd
000001d0: 46ba 653b 10a0 96bd 591e d1bc c6f6 a63d
000001e0: ee48 8dbd 6fe2 6ebd 5cff 85bd 36d5 8cbd
000001f0: a78d 353a 87d2 b1bd 4061 36bd 59ed b73c
00000200: 23bd 553d 9e55 b13d 49c6 143d 78f3 22bd
00000210: 9ca1 923c c916 2ebd 2c71 10bc faed 8cbd
00000220: b510 e53c 61e2 8c3c e964 f83c 1d07 40bd
00000230: 880c 84bd f061 b93d 18de 833d c77e c2bd
00000240: 11ca 363d 4e82 c33d 616d 0fbc 63cf 183d
00000250: 8bec 9e3d f070 dcbc a0c8 ec3c d89a 77bd
00000260: faad 503d 1c2e a7bc 89a8 b23c 8add 993d
00000270: 0a41 b43d 619c bfbd abfd 44bd b6e3 9ebc
00000280: 86d7 0ebd 86d1 453d 3778 c13d 335c 383b
00000290: 2606 9e3d bb25 553d 9ade 6cbd 4b81 91bd
000002a0: 2f1b 3bbd eed7 47bd dca5 243d 6993 b7bd
000002b0: beed 8ebd 5696 633d 663d 6f3d c76c 5c3d
000002c0: bc7e 1cbd 4ca5 c3bd b034 373d 2bdb ae3d
000002d0: 4601 c13c 89e0 b9bd c995 2dbd 3e2b b3bd
000002e0: ec65 1abd 944b 893d 33b8 8dbd 856b b4bd
000002f0: 1678 a33d cba5 95bc b327 883d 0185 babc
00000300: 6d99 90bd c868 2d3d 9c56 be3d 332a b83d
00000310: f197 ff3c c542 1f3d 5013 083d 06a7 ac3d
00000320: 2e79 c3bd 9ee1 cfbb 10bd 8cbd 940d 06bb
00000330: de02 29bd 8f28 e4bb 07e3 9abd 7ecf ffba
00000340: 7f93 8b3d f890 29bd 2f11 60bd 6a17 9dbc
00000350: a52b 88bd 5181 2c3c 2e0b 343c aac4 373c
00000360: df6a bf3d e2ad 8cbc 599d 6b3d 4244 5ebd
00000370: ba36 473d eed4 90bd ba46 b53d f098 b2bd
00000380: e78e 6d3d ef6e 943d cb53 e4bc 260a 9a3c
00000390: f712 ef3b 4b35 4cbd a084 06bd c2ed 18bc
000003a0: 3a45 0e3d effc a23d 31a1 2ebd 51bd bf3d
000003b0: a18a 583d 3e9f 54bd 01c9 063c 354f 973d
000003c0: ba04 853d aa22 2bbd 4c8a eabc 2587 c33c
000003d0: c662 85bd bebb 373d 4ddb 533d f88c a33b
000003e0: 0097 a23d 845c c4bd 356d c8bd a5b1 64bd
000003f0: 6436 acb9 c5fe b33d 7704 b2bd f3be a9bd
0.01726245 -0.023335245 0.067995034 0.061135557 0.0492832 -0.059688777 0.035941165 -0.08799442
-0.013127792 -0.03183475 -0.04271298 -0.02075983 -0.0065783127 0.0753921 0.0068718195 -0.09879367
0.04422861 -0.07679351 0.04639198 0.032555453 -0.09311926 -0.07068543 0.0036361702 -0.004382014
0.068697065 0.07178059 -0.045117747 0.084499545 -0.020667084 -0.05331231 -0.016589954 0.0967272
-0.009949105 0.04922691 -0.047980294 0.028613219 0.06589892 -0.01642987 0.005430993 0.05734381
-0.018256335 0.007957759 -0.029138187 0.07521895 -0.075282946 -0.048075374 0.08971643 0.024439797
0.094818845 -0.074940905 0.08549902 0.0036575035 -0.022587445 0.09090484 -0.09229843 -0.061056815
0.06872582 -0.03742879 0.07474327 0.063614585 -0.015763529 -0.096039556 0.055357203 -0.050077844
0.045663733 -0.003495214 -0.07589101 0.012595871 -0.0418608 -0.024529224 0.066290624 -0.02230673
0.0067721014 0.031295594 0.027365953 -0.07357889 -0.06478633 -0.017861506 0.082697675 0.020875718
-0.0672872 -0.07801036 -0.019095205 0.015706347 0.07417023 -0.016914252 0.032879356 -0.026474105
0.06462857 0.085235596 -0.067237414 -0.06921077 0.06456032 0.02437578 -0.053046215 0.09179301
0.092759885 0.019600859 0.061066713 0.061979685 -0.02884961 -0.045986556 0.031168934 -0.015556051
-0.026937867 -0.05290286 0.08706268 0.04118269 -0.014361479 -0.067596234 0.005782786 0.040543433
0.038995717 0.05431106 0.09110142 -0.03339114 0.0035053655 -0.07354748 -0.025527166 0.08152537
-0.06898676 -0.058321413 -0.065428466 -0.06876604 0.000692571 -0.08682733 -0.04452634 0.022452043
0.052182328 0.08658908 0.036321912 -0.03978297 0.017899327 -0.0425022 -0.008816045 -0.06881328
0.027962068 0.01719779 0.030321555 -0.046881784 -0.06447703 0.09051883 0.064388454 -0.09496837
0.0446263 0.09546338 -0.008754105 0.037307154 0.07759961 -0.026909322 0.02890426 -0.060450405
0.050947167 -0.020407729 0.02180888 0.07512958 0.08801468 -0.09355999 -0.04809348 -0.01939569
-0.034873508 0.04829552 0.09446757 0.0028131127 0.077160165 0.052037936 -0.057829477 -0.07104739
-0.04568022 -0.04878991 0.04019724 -0.08963663 -0.069789395 0.055563293 0.058408163 0.053814676
-0.0382068 -0.09553012 0.04472798 0.08537897 0.023560178 -0.0907603 -0.042379174 -0.08748482
-0.037694857 0.067038685 -0.06919899 -0.0880957 0.07981889 -0.018267533 0.06648197 -0.0227685
-0.07060514 0.042336255 0.09293863 0.08992424 0.031200381 0.038882036 0.033221543 0.08430295
-0.095445976 -0.0063440343 -0.06871998 -0.002045487 -0.0412625 -0.006962843 -0.07562833 -0.0019516794
0.06815242 -0.04139802 -0.054703888 -0.019176204 -0.066489495 0.010528878 0.010988994 0.011216322
0.09346556 -0.017172758 0.057523105 -0.054264314 0.048636176 -0.07071863 0.08851381 -0.08720577
0.05799761 0.072477214 -0.027871987 0.018803667 0.007295962 -0.04985551 -0.032841325 -0.00933403
0.03473399 0.079583995 -0.042634193 0.09362281 0.05286658 -0.051909678 0.008226634 0.073881544
0.06495042 -0.041781105 -0.028630398 0.023868153 -0.0651298 0.04485678 0.051722813 0.00499117
0.07938957 -0.095879585 -0.097864546 -0.055833478 -0.0003284692 0.08788828 -0.08692258 -0.08288374

lstm1.bias_ih_l0 f4 [428]
00000000: 07fb a13d 0131 8d3d c48c 1ebc 2cc4 8c3d
00000010: fcfc 523c a057 81bd 9835 7f3d 9d9f ad3d
00000020: 41f7 3ebd 08b2 eabb cca9 9bbd ce06 24bd
00000030: aa5d 06bc 2889 98bc 80ec 33bd 7c7c 65bd
00000040: a40f 98bd ce62 5bbc 7e7f c1bd 1467 9cbd
00000050: ecea 2bbd 0c3a f5bc 66d1 c53b d6ea 74bd
00000060: 1a22 14bb e868 bd3d ee46 95bd 721c e13c
00000070: 6fe0 153d 0537 873c 5aba 393d 3ad3 86bd
00000080: 8cfd c8bd 7663 b4bd 7e2a d7bb 816f 15bd
00000090: f95b be3d 5291 993c 8522 c93d ed70 f73c
000000a0: f71b cbbd 621a 29bd 264b a1bb b3bb 203d
000000b0: dc96 8bbd 71f1 b53d ea37 4d3d 4757 be3d
000000c0: a0f0 10bd 40d6 94bd 7911 85bd dca0 723c
000000d0: 81d6 813d e58a 813d a3e5 6e3c 5f7e 2a3d
000000e0: 71b7 61bb 9f3c 053d dba1 913b d86d 0cbb
000000f0: 77c9 94bd 6d4e 883d 5c2c 803d 117a 0f3d
00000100: 23bb c23d 1d42 3d3d 9428 40bc 2740 ee3c
00000110: 62b2 ae3c ae0b 56bb 258c ca3d a49f 24bd
00000120: 0271 b43d 0bf8 ab3d 383e 173d 7c7b bcbc
00000130: 4f17 bbbd 980c 62bd c2b4 8d3c df03 b43d
00000140: 9961 b13d f8f4 63bd d465 183d 239c a0bd
00000150: 4e87 98bd afa6 62bd c0d5 4dbd 9c30 72bd
00000160: ba5d 6b3d 07bc 9cbc 4d1f 2b3d 2808 a0bd
00000170: 9e86 a53d 9150 463d 5d95 99bb 66d9 6a3d
00000180: 8e3b a9bd 46af a2bd 3fbe 18bd b6b6 40bd
00000190: e5e3 573c 19a8 83bd 5812 ba3d a465 ad3d
000001a0: b161 a8bd 6949 8ebd 4db9 6c3d 8aeb b8bd
000001b0: 0104 f43c e966 32bd 0e30 0dbd 2760 863b
000001c0: ca9b 723d 44ec bcbd b338 4bbd c66a 833c
000001d0: 7dfe fc3c 7e94 243d 702b 123d 92cf c43c
000001e0: 4e80 693d b1ce 1aba d70d 6abd 2fc8 1b3b
000001f0: 3a60 1bbd 684e 90bb 0beb a13d 4aaf a6bc
00000200: 1030 a6bd 4de2 8f3d d5f9 8abc c763 0bbc
00000210: f772 61bd 61b2 863d 3c4c e7bc 945a e23c
00000220: f03a 52bc 4adf c93d dc87 013c 3024 cc3c
00000230: b778 c4bd 90b3 61bd 74c7 813c deca 2c3d
00000240: b546 0a3d 556c 9cbb 7a5f 9fbb 37ae a73d
00000250: d9cb 2fbd c405 c23d 7a3b 5d3d aaea 0ebd
00000260: 5a14 b13d 270b e43c 685f 403d a6c4 8f3d
00000270: 5dfd a13d 7fb6 a6bd 5d01 52bd 66f3 073d
00000280: b231 aabd 34cd 833d 5024 9a3d 3242 7cbd
00000290: bffb 773d 92fb a4bd 6e0e 0e3d 7603 8abd
000002a0: 2fab a8bd a501 82bc 7298 bdbd f943 7e3d
000002b0: 30d1 853d e026 acbd 6fab c33d 59bb 45bd
000002c0: 38b3 a9bd b64d d2bb 3993 a43d 24ed 97bd
000002d0: 1d16 0a3d cc44 9a3c fcc9 363d b27f 14bd
000002e0: 64a9 a33c 28ff 4cbd 3e57 a83d 6d11 12bd
000002f0: 4102 a0bd 44ba 06bd 6dc1 333d 07b7 acbd
00000300: 91f3 c3bc b3d7 a03d 8db1 2fbc 4d6c b5bd
00000310: 0ecb ab3d 316b a5bd c8fd f63c e510 5d3d
00000320: ff50 1abc fb79 523d 2402 91bd 20b2 41bd
00000330: da11 343d b13b 4ebd 810a 203c c00d 28bc
00000340: c8ee 9bbc b912 abbd 9e8a c33d 6ad8 2bbc
00000350: e158 b33b 9224 2bbd 7aaf 593d 05bd f7bc
00000360: 1344 99bc 3302 ac3d 8272 5ebd bac8 cdbc
00000370: e363 bd3d 4da8 293d a575 cebc 46ff 95bd
00000380: d627 e33b 3726 96bd f5b1 c23d 4fe0 423d
00000390: 0a9f 27bd 99f9 89bd 2637 46bd e440 0abd
000003a0: bf38 84bd b435 983c a578 663d d229 5fbd
000003b0: 8222 063d 1d6d 9f3d f392 263d 918a 05bd
000003c0: f5c0 903d 86fb a1bd cb20 80bc 3734 a53d
000003d0: 10bd b73d 01d6 e63c e1b1 1bbd 8227 5b3d
000003e0: 4f9f 4c3c ca9e 9cbd 2c91 fcbc ae68 eb3c
000003f0: d86f 98bd 36c7 e5bc 422a bcbc 5462 703d
0.07909208 0.068941124 -0.009677116 0.06873354 0.012877699 -0.06315541 0.06230697 0.084777094
-0.04662252 -0.0071623363 -0.076007456 -0.040045552 -0.008201042 -0.018620089 -0.043926716 -0.05602692
-0.07424858 -0.013390256 -0.09448145 -0.07636848 -0.041972086 -0.029934905 0.006036925 -0.05979427
-0.0022603334 0.09248525 -0.072889194 0.027479384 0.03659099 0.016505728 0.045343734 -0.06583257
-0.09813985 -0.08808033 -0.0065663448 -0.03648329 0.09294886 0.018746052 0.09821037 0.030205214
-0.09917443 -0.041284926 -0.0049222885 0.039241504 -0.068158835 0.08883942 0.050102152 0.092939906
-0.035385728 -0.072674274 -0.06497473 0.01480886 0.063397415 0.0632532 0.014581117 0.041624423
-0.0034441615 0.032528516 0.0044443435 -0.0021427777 -0.07264989 0.066555835 0.06258461 0.03502852
0.0950835 0.04620563 -0.011728425 0.029083325 0.021325294 -0.003266077 0.09890012 -0.040191308
0.08810617 0.0839692 0.03692457 -0.0230081 -0.09135305 -0.05518779 0.017298106 0.08789801
0.086611934 -0.055653542 0.037206486 -0.07842281 -0.07447682 -0.055334743 -0.050252676 -0.05912839
0.05746243 -0.019132627 0.041777898 -0.07814056 0.08082317 0.048416678 -0.004686995 0.057336234
-0.08263312 -0.07943587 -0.037290808 -0.047049247 0.013176893 -0.064285465 0.0908553 0.08466652
-0.08221758 -0.069475956 0.057793904 -0.090293005 0.029787065 -0.043555174 -0.034469657 0.0041008177
0.059230603 -0.092247516 -0.04961462 0.016042124 0.030883068 0.040180676 0.035685956 0.024024758
0.057007127 -0.0005905433 -0.057142105 0.0023770442 -0.037933566 -0.004403878 0.07906159 -0.020347256
-0.08114636 0.07025585 -0.016964832 -0.0085076755 -0.05504128 0.06576992 -0.028234594 0.027631082
-0.012831435 0.09857042 0.007905927 0.0249196 -0.09593337 -0.055102885 0.015842177 0.042185657
0.033758838 -0.0047736564 -0.0048636766 0.08187526 -0.042919014 0.09473756 0.0540118 -0.03489176
0.0864646 0.02783735 0.046965986 0.070199296 0.07909653 -0.08140277 -0.05127083 0.033191107
-0.0831026 0.06435624 0.07526457 -0.061586566 0.06054282 -0.08055796 0.03468173 -0.06738941
-0.08235776 -0.015869925 -0.09257592 0.062076543 0.0653404 -0.08405852 0.09554183 -0.04827437
-0.082861364 -0.0064179553 0.08035893 -0.07418278 0.033712495 0.018831633 0.04462622 -0.036254592
0.019978233 -0.050048023 0.08219765 -0.03566115 -0.0781293 -0.03289248 0.043885637 -0.08433347
-0.023919852 0.07853641 -0.010723484 -0.08858547 0.08388339 -0.08077086 0.03015031 0.05397119
-0.009418725 0.05138586 -0.070804864 -0.047289014 0.043962337 -0.050349895 0.009768129 -0.0102571845
-0.019034758 -0.083531804 0.095479235 -0.010488609 0.0054732417 -0.041782923 0.053145863 -0.030241499
-0.018709218 0.08398857 -0.054308422 -0.025120128 0.092475675 0.04142027 -0.025202582 -0.0732408
0.006932239 -0.07331508 0.09506599 0.0475772 -0.040923156 -0.0673706 -0.048392437 -0.03375329
-0.06456136 0.018580295 0.0562674 -0.054483242 0.032747753 0.077844836 0.040667485 -0.03260285
0.07068054 -0.079093024 -0.015640637 0.080666 0.08971608 0.028178217 -0.038011435 0.053504474
0.012489154 -0.07647474 -0.030830942 0.028736439 -0.074432075 -0.028049093 -0.022969369 0.058687523

lstm1.bias_hh_l0 f4 [428]
00000000: a3e0 103d 43ba 473a 972e 2b3d d92c fdbc
00000010: f812 61bd 57f8 79bd e724 cfbc 61da e2bc
00000020: 597f 9ebd 6274 a43d 2973 2cbc 35d6 99bd
00000030: 64a9 02bd cd16 aa3d e714 45bd ca24 163d
00000040: ada7 1dbd 4199 94bc c23a 243d f06c 83bd
00000050: 8ff9 873d dd12 8fbd 4117 68bd a292 98bc
00000060: 1bb4 af3d ffc4 adbd 54ef 65bd 17f6 db3a
00000070: ff02 573d 3fc1 5abd 9c79 c03d 7690 8fbd
00000080: 401d 1439 4a9c 893c 4ead 91bc 335b 1ebd
00000090: 8ca0 4f3d 5171 b13c 0c6f 793d 5cff b5bc
000000a0: 6416 bc3d 050d 613d 9796 733d 0f29 28bd
000000b0: cd31 98bd 79ca b73c a6f3 acbd 15f3 7e3d
000000c0: 76aa d3bc 3551 b73c 337e 93bd c37b 853c
000000d0: 18d3 2e3d c935 b63d 1081 243d 5772 6f3d
000000e0: 8131 b6bd b4f8 dbbc f8ef 513d 5d23 1ebd
000000f0: 7023 5c3d f7d4 8dbc 1c26 7bbd c0c8 abbd
00000100: 1784 d8bc 9ba8 4cbd 6794 b1bd 938c 88bd
00000110: 3362 11bd bc2c 613c 0705 313d 37ea b33d
00000120: 42f7 c0bd cfec 563b a024 70bc e44a 83bc
00000130: 720f a8bc 5ed6 843d 7b7a 303d 3f9f bc3d
00000140: 2eae 303c 7e43 e13b 8dfd 59bd 2d98 8f3d
00000150: 676e 6e3c 84dd d93b a1ff 44bc adb8 71ba
00000160: 4454 e6bc f666 223b 2647 d3bc 23c8 b1bd
00000170: 0923 61bd 2c31 00bc 1ef7 1cbd 1a0b 7b3c
00000180: d8f6 0a3d e308 603a c250 79bd c38f 0ebd
00000190: e011 9d3d 4ae7 c7bc 2418 c1bc cb99 52bb
000001a0: b0d7 d63c 5f64 373c 7763 89bd 13f6 2fbd
000001b0: f07d 893c b3da afbd 98d0 663d 52f9 773d
000001c0: f2c1 0bbd 9b33 89bd 3a8a 9e3c 51bf d2bc
000001d0: 7455 f0bc 3c1a 8cbc 95c0 6dbd d27a 8c3d
000001e0: cd4d 7bbd 49ac 82bd eb09 5f3d 0840 9a3d
000001f0: 1f0b 583d 8873 1f3d be85 8abd c2a4 873d
00000200: fbba 9f3b 1862 cbbd 40e4 95bd 1921 c6bd
00000210: 3da8 fabc d277 1e3d 0ce7 153d 972b 73bc
00000220: 2e1a a8bd 1ea6 93bd 4af9 be3d fa76 bebd
00000230: 053e 1fbd 3e20 463c 041e 6abd c1d8 f03c
00000240: e0ab 26bd 04f7 a63d 0b79 313d 41af a43d
00000250: 9b52 6abd 75be 42bd 4437 5c3d 454e 2dbc
00000260: f4eb 10bd 8103 9c3d 7ebc 65bd 0c99 0ebd
00000270: f871 ebbc f33a 83bb 4818 bbbd b59d ec3c
00000280: d163 3d3d 5bf6 ae3c 62f9 19bd 55df 833d
00000290: ca51 e93c cb23 6cbd c048 bdbd 9b0e e6bc
000002a0: 5f93 c0bd 0c39 9f3d 7d32 e13c 21fd 6fbd
000002b0: 7129 80bd 6f8f 7c3c d3bc 9abd 73f6 b83d
000002c0: 6b02 803d a0f2 bd3d 6a63 a53d c43f 85bd
000002d0: bfbe 9f3d aee2 5b3c bf3d 1fbd c85f a4bd
000002e0: 0cc7 413d a4a4 aabc 2d2e 00bd 47d1 7f3d
000002f0: 8b55 96bd 7b50 843d 8f26 a93d 1fc7 463c
00000300: 95ca 303d e2b5 b0bd 7b4b cabd 1500 963d
00000310: 0891 b2bd 888b aabd 0fed a93d 9d38 753d
00000320: 7ff9 abbd 3ab7 323b 0a72 83bb 0844 543d
00000330: ad93 793d 46d7 2cbd 8d1f b53d d261 0bbb
00000340: ecb5 02bd ae10 c8bc 3584 afbd 9f58 853d
00000350: dcd3 bd3d 3352 35bc 593a 383d ac51 4b3d
00000360: d81b 60bd f5f3 4a3d 6f8f 003d 5cfd 783c
00000370: fc1b 393d 3eab 12bd 57a8 b1bd dfae 14bd
00000380: b47e 173d e0df abbc 2849 5c3d 67a8 f43c
00000390: 8631 553d fd9d 8fbd 6330 9ebd 207f 5d3d
000003a0: e176 993d e338 903d 4765 f4bc 153a 853d
000003b0: f884 a63d 8c12 5bbd 5539 95bc fa14 413d
000003c0: 7f79 d2bb ea2c 71bb 56a1 873d 2bb1 b5bd
000003d0: de48 873c b9e5 b73d 4421 b6bb b4e8 573d
000003e0: 9f2d d73c 2596 b7bd 9e03 153d 1c48 c13d
000003f0: 6a5f 9b3d ee6e c13d 1ba9 77bb 18d8 5f3d
0.03537048 0.0007619003 0.04179248 -0.030905174 -0.05494973 -0.06102785 -0.025286151 -0.027692022
-0.077391334 0.08030011 -0.010525503 -0.0751156 -0.031899825 0.0830513 -0.048115637 0.03665618
-0.038489986 -0.018139483 0.0400951 -0.064172626 0.066393964 -0.0698602 -0.0566628 -0.018624607
0.08579274 -0.0848484 -0.056136444 0.0016781715 0.05249309 -0.05340695 0.09398195 -0.070099756
0.00014125276 0.016798157 -0.017782833 -0.038661193 0.05069022 0.021660479 0.06089692 -0.022216491
0.09183958 0.054944057 0.059469786 -0.04105478 -0.07431374 0.022435414 -0.0844491 0.06224354
-0.025838118 0.02237759 -0.07201805 0.016294366 0.042681783 0.088969775 0.040162146 0.058458652
-0.08896161 -0.02685199 0.051254243 -0.038607944 0.053744733 -0.017313464 -0.06131564 -0.083878994
-0.026430173 -0.049965482 -0.086708836 -0.066674374 -0.03549404 0.013743576 0.043217685 0.08784907
-0.09422161 0.0032794958 -0.01465717 -0.016026922 -0.020515177 0.064862 0.043085556 0.09210061
0.010783715 0.006874501 -0.05322032 0.07011447 0.014552689 0.006648721 -0.012023837 -0.0009220939
-0.028116353 0.0024780608 -0.025790762 -0.08680751 -0.054965053 -0.0078242235 -0.038321607 0.015322471
0.033926815 0.0008546246 -0.060868032 -0.03480507 0.07669425 -0.02440228 -0.023571081 -0.0032135125
0.026225895 0.011193364 -0.067084245 -0.042959284 0.016783684 -0.085866354 0.056351274 0.060540505
-0.034120508 -0.06699296 0.019353021 -0.025725992 -0.029337622 -0.017102353 -0.05804499 0.068593636
-0.061353493 -0.06380517 0.054452818 0.07531744 0.05274498 0.03892854 -0.067637905 0.06623222
0.0048745847 -0.09930819 -0.07318926 -0.096742816 -0.0305978 0.03868849 0.036597297 -0.014841936
-0.082081184 -0.07209419 0.09324892 -0.09300037 -0.038877506 0.012092648 -0.05715753 0.029400231
-0.040691257 0.08152583 0.043328326 0.080412395 -0.057207685 -0.047544915 0.053763643 -0.010577743
-0.035381272 0.07617856 -0.056087963 -0.034813926 -0.028740868 -0.00400483 -0.09135491 0.028883794
0.04623777 0.021357706 -0.037591346 0.064390816 0.028481383 -0.057651322 -0.092423916 -0.028083136
-0.09403109 0.07774553 0.027489895 -0.058591012 -0.06257904 0.015415057 -0.075555466 0.090313815
0.06250461 0.09274793 0.08075602 -0.06506303 0.07800054 0.013420744 -0.038877245 -0.08026081
0.047308967 -0.02083046 -0.031294037 0.06245544 -0.07340535 0.06460663 0.082593076 0.012132435
0.043161947 -0.086284414 -0.09877678 0.073242344 -0.08719069 -0.08327395 0.082971685 0.059868444
-0.08397197 0.0027269856 -0.0040113972 0.051822692 0.06093185 -0.04219749 0.088439085 -0.0021268022
-0.031911775 -0.024422016 -0.08570138 0.06511044 0.092689246 -0.011066961 0.04497752 0.049638435
-0.054714054 0.04954906 0.03138679 0.015197124 0.045192704 -0.03580784 -0.086746864 -0.036299583
0.036986068 -0.020980775 0.053780705 0.029865457 0.052049182 -0.07012556 -0.07724073 0.054076314
0.074933775 0.070421 -0.029833449 0.06505219 0.081308305 -0.053484485 -0.018215815 0.047139145
-0.006423175 -0.0036800453 0.06622569 -0.08871683 0.016514238 0.08979363 -0.005558165 0.052712157
0.026266871 -0.08964185 0.036380403 0.09437582 0.07586558 0.09444986 -0.0037790004 0.054649442

lstm2.weight_ih_l0 f4 [164, 107]
00000000: 9926 dc3d 4fe5 26bd 5073 1a3e 4356 bebd
00000010: 53ad b7bc 622f 993d 056b 693c 339c 063e
00000020: 2ec4 1b3e fcc3 763c 4d12 8d3d e8af e63d
00000030: 1985 103e f339 113e 0184 983c ae5d cebd
00000040: c96e 07be 06e7 8fbd b58d a93c 12ae 143e
00000050: cc8e a03c b248 d33d 2e85 fe3c b945 b73d
00000060: 8f4d cbbc 0572 8d3d 10cf 5c3b 9e10 303d
00000070: 8e43 0a3d 119d d83d a54c a53d 9fb8 9bbd
00000080: 36b5 a13b 4768 4a3d 8315 2b3c 7c91 a13b
00000090: e573 8bbc d833 24bd 9906 b3bd 1665 0e3e
000000a0: b3b2 f7bd 6bb2 db3c b632 9a3d 7fbf f3bd
000000b0: c48f 4e3b 92ec 033e 1469 cbbc dc3a c83d
000000c0: 507e 0e3e 7f25 9c3c dfdf 08be 6ed0 873d
000000d0: 1c80 f6bd 11f5 7c3d d400 c9bd 810d d9bd
000000e0: 0185 40bd f8aa 7ebc c08e 31bd 8825 ecbd
000000f0: 11f8 4a3d 4410 12be cb8c bd3d 7c88 8abd
00000100: 93f9 9c3d 40c3 5abd e2b6 103e fd1f 31bd
00000110: ed76 a3bb 7fc0 a13d 88f0 aa3d 513c d33d
00000120: c7d8 fb3d ada5 e9bd 68e7 31b9 bb35 853d
00000130: 80a7 6bbd 599f f63c 663d dabd 0314 04be
00000140: 1497 89bd 75c7 af3d 52e2 b1bd e646 35bb
00000150: da22 7c3c 369c d93d 82c0 63bc abad 11be
00000160: 210a 143e 572b ee3d f0d5 6c3d 8104 afbc
00000170: a6c1 9b3b c2f6 873d da60 2d3d bdf0 6bbd
00000180: 3f3f 55bd a41e e1bd 1f15 123e 2138 273d
00000190: bc1d cebc ae82 ef3d 3bfa 17be 3663 5d3d
000001a0: ff9b febc 595e 78bd f5d8 e4bd 2c28 143e
000001b0: d49b e73d 5cc2 05be 4557 ec3c 83c1 9b3c
000001c0: 60b8 40bd 9f30 643d cd71 b1bd 12e3 93bd
000001d0: cb54 9b3b f1bb f03c ab20 d1bd 885d 8d3d
000001e0: e63c d83d f9a6 d9bd 558f d7bd 3a17 b33d
000001f0: 3e7c dd3d ea98 debd 0f23 adbd 2d3c ccbd
00000200: 7371 e43d 794a 1dbe 1551 d93d 1b87 983d
00000210: 89b7 043e 321d 0ebe d180 533d 4f67 bcbc
00000220: 2837 0fbe 6ceb a9bd a46e ddbb a4e2 ea3d
00000230: 724d 0e3d 02a7 1dbe b258 2f3b 9b59 b0bd
00000240: 0a7f 25bd d20c 94bd 9c67 81bc b5e0 a9bd
00000250: f969 b43d 2c62 1abe 8f8c 773d e55f bdbc
00000260: c427 9b3d 1b30 483d 3e48 ff3d d38d 113d
00000270: ea5f bf3c 8773 17be 1ccf 1ebd 649b 2b3b
00000280: 2101 193e b695 fa3c 7f7f 1c3e 27b6 493d
00000290: 40e9 16be dacd e5bd 9318 1a3e 078c 803d
000002a0: 6bfb a53d 2bc9 823d 6f84 cb3d f698 1a3e
000002b0: 67e7 01bd cb10 c93c 83fd b03d 96ad cd3d
000002c0: f7cb 0f3d a407 4f3d 2a76 1b3d 944d a93d
000002d0: 86a9 563d e6d8 093d bd5e 03be 6510 0a3d
000002e0: 0e18 a63d 0412 193d 43ad a4bd 3e7d 173e
000002f0: b6a6 eebd ea73 1fbc 41b9 e1bd 0872 d93c
00000300: 4913 073e 27a1 0dbd e11e a13d 5aac 1e3d
00000310: 0877 e0bd ab36 583d 6c14 5e3d 07d1 89bd
00000320: bd18 81bd 2e36 d7bd da89 a3bd 3baa a23d
00000330: c273 f13d 9f84 f13c 782d 913d 5f17 24bd
00000340: 99d6 bc3d 2273 213d 89d0 21bc 03db 9dbd
00000350: 9a7c 3ebd 6ebf 9abd 36eb 083d bf42 a4bd
00000360: 9a3c 143e 5e8e 8f3d 6d90 9b3d 18ba 103e
00000370: 19fb 0ebe e66e a43d 7340 6bbb 4724 6cbd
00000380: 3755 8a3d ea1f a3bb 5090 d8bb 6043 23bd
00000390: 4495 7d3d 2f42 0dbe d5a2 723d 7c04 15be
000003a0: a910 c8bd f89a 93bd 4583 103e ec0a a13d
000003b0: dbd8 6abd f24b cabd bf4c 89bd 9de0 3bbd
000003c0: 3e2c 05be 0264 b83d bb12 cf3d bd3a d63c
000003d0: 1217 093e 9ff5 ea3d 1ef8 173e 0ee1 9e3d
000003e0: 9eee c73d 83b8 ba3d bf0b febc 9fd4 a3bd
000003f0: fdee 05be da2d cc3d 048c b1bd 8f0f 0b3b
0.107495494 -0.04074603 0.1508305 -0.09293797 -0.022421515 0.07479741 0.014246707 0.13145523
0.15211555 0.015061375 0.06888256 0.1126402 0.14113273 0.14182262 0.018617632 -0.10076462
-0.13225855 -0.07026486 0.020697454 0.14519528 0.01959934 0.103166 0.031069364 0.089488454
-0.024817256 0.06906513 0.0033692755 0.042984597 0.03375583 0.10576833 0.080712594 -0.07603573
0.004934932 0.049415853 0.0104421405 0.004930673 -0.017023036 -0.040088505 -0.08741493 0.13905749
-0.12094631 0.026818475 0.075292036 -0.11901759 0.0031518796 0.12883213 -0.024830379 0.097768515
0.13915372 0.019060848 -0.1336665 0.06631552 -0.12036154 0.06175715 -0.09814611 -0.10598279
-0.047001842 -0.015543692 -0.043349028 -0.11530596 0.04955298 -0.14264017 0.0925537 -0.067643136
0.0766479 -0.05340886 0.14132264 -0.043243397 -0.0049885423 0.07898044 0.08346659 0.10314239
0.12297206 -0.11408553 -0.00016966241 0.06504389 -0.057532787 0.03010528 -0.10656242 -0.12898259
-0.06718269 0.08582965 -0.08685745 -0.0027660667 0.015389169 0.10625498 -0.013900878 -0.14226405
0.14456989 0.1162936 0.057821214 -0.021364452 0.0047533093 0.06638862 0.042328693 -0.057602633
-0.05206227 -0.10992172 0.1426587 0.040825013 -0.025160663 0.11694847 -0.14841549 0.054049693
-0.031080244 -0.060636852 -0.11174194 0.1446845 0.11309019 -0.13062423 0.028850207 0.019013172
-0.047050834 0.05571043 -0.08664284 -0.072210446 0.0047403327 0.029386492 -0.10211309 0.06902605
0.105584905 -0.10627551 -0.10525385 0.087446645 0.10814713 -0.1086901 -0.084539525 -0.09972415
0.11154451 -0.1536044 0.10611168 0.07447644 0.12960638 -0.13878325 0.05163652 -0.02299848
-0.13985884 -0.08296856 -0.006757574 0.114690095 0.034741826 -0.1539574 0.0026755747 -0.08610841
-0.040404357 -0.07229008 -0.015796475 -0.082948126 0.08809275 -0.15076512 0.06043678 -0.023117015
0.07575944 0.048874002 0.12464951 0.035535645 0.023361165 -0.14790164 -0.038771734 0.002618515
0.14941837 0.030588966 0.15283011 0.04924598 -0.14737415 -0.11220904 0.15048437 0.06276708
0.08104595 0.06386026 0.09937369 0.15097412 -0.031714823 0.02454414 0.086421035 0.100428745
0.035106625 0.050544396 0.037954487 0.0826675 0.052407764 0.033654116 -0.12829109 0.03370704
0.08110057 0.037370697 -0.080408596 0.1479387 -0.11652891 -0.009732226 -0.110216625 0.026543632
0.1319095 -0.034577515 0.07867218 0.038738586 -0.109602034 0.05278651 0.054218695 -0.06729322
-0.063035466 -0.10508381 -0.079852775 0.07942625 0.11789657 0.029482184 0.070887506 -0.04006135
0.09220619 0.03941644 -0.009876379 -0.07707789 -0.046505548 -0.075560436 0.03342744 -0.08020543
0.14476243 0.07009576 0.075959064 0.14133489 -0.13962974 0.08028965 -0.003589657 -0.057651784
0.06754535 -0.0049781697 -0.0066090003 -0.039859176 0.06190993 -0.13794778 0.05923732 -0.14552492
-0.09768803 -0.07207292 0.14112575 0.07863411 -0.057335716 -0.09877767 -0.06704091 -0.045868505
-0.13005158 0.0900345 0.101109944 0.026151055 0.13387707 0.1147263 0.14840743 0.077577695
0.097623095 0.09117224 -0.03101146 -0.07999539 -0.13079448 0.09969683 -0.08669284 0.002121899

lstm2.weight_hh_l0 f4 [164, 41]
00000000: 204a e13d 0c6b 11bc 395c d5bd 1f43 06bd
00000010: 0965 e6bc 9e68 09be d5fa 123e 9d2e f2bd
00000020: 6c86 9b3d fc8e e3bd 448b d0bd 5c1c cf3d
00000030: fd53 8fbd 948c 913d e51a 74bd 7bce c4bd
00000040: 6019 153e 116e d5bd 72e1 e4bc 70d0 c9b9
00000050: 11ac 12be 53a4 ef3c c98f 0dbd 0d96 b93d
00000060: d38b 563d 042b cfbd 257d d4bd b002 0cbe
00000070: a328 dabd ad27 00be 0cd5 af3d 5a43 063e
00000080: 98db 94bd dd0a 11bc 1087 18be e8aa ce3d
00000090: 9bf0 edbd 042c 17be 1502 593d e321 8f3d
000000a0: da2b 75bd 43b4 943d bf7b 15bd ae7d f33d
000000b0: d0b3 e43d cbac ba3c 125d 1abe 8e84 84bd
000000c0: f18f d1bd 9cae fd3d 8a74 e8bd 55aa f3bd
000000d0: fee9 c6bd f796 d13d e6f2 b43d 0c20 e43d
000000e0: e547 b8bd 82d4 1a3e 162a a7bd bf37 15be
000000f0: 2019 0abe 46b6 ce3d a1ec 8f3c 5c2e a6bb
00000100: 7db4 febd 0cda 0e3e a3d0 943d c375 133e
00000110: af16 ef3d 80b6 a3bc f264 8aba 5afc 85bd
00000120: 9b09 8dbd 4cd7 8f3c 6cf6 0fbe b42b ac3d
00000130: 9e1f 03be 5ee8 143c 9cd8 fabd 20d5 19be
00000140: 0aa9 1bbe 189e bdbd 0eb5 c7bc eead a13d
00000150: f766 0d3d 5a9a 9f3d 0494 bb3d 6ba1 9f3d
00000160: be83 813d c137 56bd 75e0 a7bd 899b 7f3c
00000170: 697e a93d 133c 6d3c f66c 6a3d 3500 8c3d
00000180: bf53 053e aeeb c2bd 3160 9e3b fa42 83bd
00000190: 4445 1abd c270 bc3d 9dbd e33d c149 163e
000001a0: 47b5 c8bd b861 623d dc88 f3bc 16dc 9cbc
000001b0: 0834 b43d 2698 f5bc 88ea 363d f467 793c
000001c0: f993 dbbd edf2 9ebd 2c23 29bd 8021 4ebd
000001d0: a384 5ebd a5f2 1a3e d8ed 11be 785f cfbd
000001e0: 374a 3b3d 0a14 28bc bfef 813d 2b98 91bc
000001f0: 568b 223e 67d9 51bc e5f8 58bd 6f6e 1ebe
00000200: 9cea 173e d956 10be 8c9b 84bd a719 f9bd
00000210: 3d1b 86bd f8d9 dabd b444 30bd d0a7 c0bd
00000220: 20e1 c23d 9adf 383d 02ab 133e 308a 00be
00000230: 7ff7 b9bb 7874 143e 4242 afbb cc32 e23c
00000240: 8235 c03d 5d79 c23c 2f94 33bc 93e8 ccbd
00000250: eb66 373c d803 c1b9 ee21 163e a065 3bbd
00000260: 0f6a d9bd 37ce 7fbc 3213 e8bc 7074 a23d
00000270: 97c2 e8bc 5bf5 84bd 2223 993d 8162 b6bd
00000280: 0478 d13d 486c 083e f382 a5bd 612a 223d
00000290: 30c5 163c d26e cc3d 3cfc b43c e59d 203e
000002a0: 22a8 283b b81b d0bd 9ef4 0cbc 0546 053e
000002b0: 893c cebd b4bc df3d 5279 91bd a120 0c3e
000002c0: 3864 033e 957d 18be 6e4f b6bd 4bdf 18be
000002d0: 87e0 e6bc 720c 04be e278 d8bd 30df 8c3d
000002e0: 209b b73d 5b23 06be dc09 813c 0e07 2f3d
000002f0: 23c1 1bbe 07f1 cc3c b953 053e 20c1 bf3d
00000300: 8b08 853d 02a0 d93d fa73 0bbe d5da 083e
00000310: 8e9f d9bc 56c5 813b 4e4e 5abd 57dd 54bd
00000320: bc21 f3bd 9a1b 133e 5c5a 05be 45a3 9a3c
00000330: dbfb f03d a950 91bd 5c61 b83d 527d 5b3c
00000340: 640d 023e 881a 15bd b257 6c3d 160a c23d
00000350: e8aa 58bd 2dd8 1abe 466e 1cbd 5f4b 07be
00000360: cb04 20bb 5ec5 0f3e 6ce7 cabc f830 14be
00000370: ccd1 97bd e682 8eba e627 a73d 27f1 b3bd
00000380: d6c0 8b3b 5e1a 6b3d 6cab 0e3e a931 87bd
00000390: b4b8 573d e212 b83d df0b dabd fab1 093e
000003a0: cc9d eb3d f900 00bc 6aaa bbbd 8d01 d53d
000003b0: 64bb 6d3c 1975 d6bd 8628 b63d a436 0abe
000003c0: ecef 803d f170 06be 9a1f f2bd 7cd0 c4bd
000003d0: 5d5f a3bb 7682 d6bd 5f46 0dbc 3730 a43c
000003e0: 3c4a 663d 7d57 d43d 4542 143e c3d5 abbd
000003f0: 7900 203e f6e5 f1bc 7e8e ca3d 6279 403d
0.11000466 -0.00887562 -0.10417981 -0.032778855 -0.02812435 -0.13418815 0.14353497 -0.11825297
0.07593998 -0.111112565 -0.10182813 0.10112831 -0.06998441 0.07106891 -0.05959596 -0.096096955
0.14560461 -0.10421384 -0.027939532 -0.00038493006 -0.1432345 0.02925316 -0.034560952 0.09061823
0.05237944 -0.101156265 -0.10375432 -0.136729 -0.10652282 -0.12515135 0.08585557 0.1311163
-0.07268447 -0.008852688 -0.14895272 0.100911915 -0.116181575 -0.14762884 0.0529805 0.06988885
-0.059856273 0.07260945 -0.036494967 0.11889206 0.11167109 0.022787472 -0.15074566 -0.06470595
-0.10232533 0.1238682 -0.11350353 -0.11897723 -0.09712599 0.102338724 0.08835392 0.11138925
-0.08998088 0.15120128 -0.08162324 -0.14572047 -0.13486147 0.1009336 0.017568888 -0.0050714444
-0.12436769 0.13950366 0.07266357 0.14400391 0.116742484 -0.019984484 -0.0010558649 -0.06542273
-0.06886598 0.017558716 -0.14058846 0.08406773 -0.1280503 0.009088604 -0.12248346 -0.15022707
-0.15201202 -0.092586696 -0.024378326 0.078945026 0.034522023 0.07793112 0.09159091 0.0779446
0.06323956 -0.052299265 -0.08197109 0.015601047 0.08276064 0.014479655 0.05723282 0.06835977
0.13020228 -0.095176086 0.0048332443 -0.06409259 -0.037663713 0.09201194 0.1112015 0.14676572
-0.09800201 0.055268973 -0.029728346 -0.019147914 0.08798987 -0.029979777 0.04465726 0.015222538
-0.10721583 -0.07761178 -0.04129331 -0.050324917 -0.05432571 0.15131624 -0.14250886 -0.10125631
0.045725074 -0.010258684 0.06344556 -0.017772755 0.15873465 -0.01280818 -0.05297174 -0.15471815
0.1483559 -0.1409563 -0.06474981 -0.12163096 -0.06548164 -0.106861055 -0.04303427 -0.09407008
0.095155954 0.045135118 0.14420703 -0.12552714 -0.005675256 0.14497554 -0.0053484747 0.027612112
0.09385206 0.023739511 -0.010960623 -0.100052975 0.011193971 -0.00036814692 0.1466138 -0.045751214
-0.10615932 -0.01561313 -0.028329466 0.07932365 -0.0284131 -0.0649211 0.07477404 -0.08905507
0.10227969 0.13322556 -0.08081617 0.039591197 0.009202287 0.09982075 0.022092931 0.15685232
0.002573498 -0.10161537 -0.008603243 0.13014992 -0.1007014 0.10924664 -0.07103218 0.13684322
0.12831199 -0.14891656 -0.08901869 -0.1492893 -0.028183235 -0.12895373 -0.105699316 0.06878507
0.089651346 -0.13099425 0.015751772 0.042731337 -0.15210395 0.025017275 0.13020219 0.093630075
0.0649577 0.10626222 -0.1361846 0.13364728 -0.02656534 0.003960292 -0.053297333 -0.0519689
-0.11871669 0.14365998 -0.1302275 0.018876681 0.117667876 -0.07095463 0.09002945 0.013396578
0.1270042 -0.036402255 0.05770082 0.0947458 -0.052897364 -0.15121527 -0.038191102 -0.13212346
-0.002441692 0.14040133 -0.024768554 -0.14471805 -0.074130625 -0.0010872751 0.08161907 -0.087862305
0.004264931 0.057398193 0.1393258 -0.06601269 0.05266638 0.089879766 -0.106467955 0.13446799
0.11504707 -0.007812732 -0.09163363 0.104006864 0.014510009 -0.10471553 0.08894448 -0.13497406
0.062957615 -0.13129021 -0.11822434 -0.09610078 -0.0049857334 -0.10474102 -0.008622735 0.020042522
0.05622314 0.103682496 0.14478405 -0.08390381 0.1562518 -0.0295286 0.098904595 0.04699076

lstm2.bias_ih_l0 f4 [164]
00000000: b5ce 103d ae92 183e 222c a8bd 901c c8bc
00000010: f3b9 20bd 2883 b93d 83b2 f13d 307e 06be
00000020: d6ef b53d 3553 053d 0a19 163e 5b2b 3ebd
00000030: f4db df3c 6646 463c 8657 47bc 2a5e 0d3e
00000040: 3e37 0dbe cd61 cd3d cf26 94bd 27c0 a83d
00000050: 5ed9 f0bc fa86 1c3e 430a 09be a8b6 1dbd
00000060: 2ead 07bd 64b3 11be 5a70 083b 2f22 acbd
00000070: e85b 08bc 7bf3 2ebd 9260 98bc d686 8e3d
00000080: 2371 c1bd 400d cfb9 612d 01be 1866 e53d
00000090: a5c4 0d3e 1b70 743d f821 f1bd 932b a9bd
000000a0: f849 0d3d 2a9f e83c 094d 03be f9f1 b0bc
000000b0: 118d 45bd 63d7 fb3d 4fed 0f3e 842d e7bc
000000c0: c423 a439 96bf 2e3d 90fb 59ba e1d5 f8bc
000000d0: 6673 123e fded 96bd 3029 56bd 7b06 73bd
000000e0: 21fc 0ebd b9b0 c23d 5ef3 74bc b426 8d3d
000000f0: 1956 bbbd e83b 763d 0780 4ebd d7b5 f23d
00000100: 8259 19be 0b65 81bd cda4 003e 06da 5ebd
00000110: d54d 03be 9601 e53d b1e5 04bd 930f 373d
00000120: b012 c6bd ec61 0b3e 651a ffbd 190f f03d
00000130: 0ea3 0b3e 7561 2fbd 573c 8dbd 5df9 e6bd
00000140: e699 17be b672 7a3c 1aa9 d5bd 3e21 1e3e
00000150: 5c12 fd3d e3f5 883d 87c3 0f3d 1a17 edbd
00000160: a152 0f3d 5544 bd3d 088a 8b3d 98e4 97bd
00000170: 152f 033e 48a0 093e 5714 8b3b 4957 22bb
00000180: 9a88 a9bc bd0e 9f3d f2c7 473d 6338 303d
00000190: 4d03 823d 8881 ce3d 8cde 853c aff9 1e3e
000001a0: 6d26 133e b23d ffbd 37a9 1f3e 155f b3bd
000001b0: a658 543c 25c6 bfbd 8822 723d ec38 0a3e
000001c0: aca4 8d3d 917f 823d c6b7 d43d 9685 f7bd
000001d0: dd10 2f3d 13a6 cebb 3a81 fa3d 3db3 893c
000001e0: 1e66 2d3d 8e51 1abd b27d 15be eb3e 90bd
000001f0: 4be4 1ebd 46be 03be 47a6 1f3e 3270 8f3d
00000200: 65f5 16bd 1486 9c3d c372 0ebe 41d9 06be
00000210: 13f2 39bd 6f26 73bd d6be f93a d04a e23c
00000220: 2021 073e 7a20 eabd 644f 1c3e 235c 0f3d
00000230: 5207 16bb e9a6 48bd dea1 31bd d35d 1dbd
00000240: 5875 c03c 67ae 1c3e 0d2e ef3d 2792 d13d
00000250: e07e 3a3c 3895 ce3d 39a6 25bd f3f6 ecbd
00000260: 3587 853c 6254 dcbd 7897 a73d 52a6 7bbc
00000270: c53a da3d fc94 59bd 559c 013d 2157 f1bc
00000280: 237c 553c e410 f43c cd28 05be 8171 e8bd
0.03535338 0.14899704 -0.08211543 -0.024427682 -0.039239835 0.09058219 0.118016265 -0.13134074
0.08883636 0.032550056 0.14657989 -0.046428066 0.027326562 0.012101745 -0.012166863 0.13805452
-0.13790604 0.1002842 -0.07233965 0.08239775 -0.029400524 0.15285864 -0.13382821 -0.038504273
-0.03312414 -0.14228588 0.002081892 -0.084049575 -0.008322693 -0.04271267 -0.018600736 0.06959312
-0.09445407 -0.0003949199 -0.12614967 0.112011135 0.13844545 0.059677225 -0.11774057 -0.08260264
0.03449437 0.028396208 -0.12822355 -0.021599757 -0.048230235 0.12296941 0.1405537 -0.028219946
0.00031307165 0.04266318 -0.0008315379 -0.030375423 0.14301834 -0.073696114 -0.052285373 -0.059332352
-0.034908418 0.095063634 -0.014950601 0.06892148 -0.09147281 0.060115725 -0.050415065 0.118510894
-0.14975551 -0.063181005 0.12562867 -0.054407142 -0.1282266 0.11181943 -0.032445613 0.044692587
-0.09671533 0.13611573 -0.12456206 0.1172163 0.13636419 -0.04281755 -0.068962745 -0.11278031
-0.14804801 0.015286138 -0.10432644 0.15442368 0.123570174 0.06687524 0.03509858 -0.11576672
0.03499091 0.09241549 0.06813437 -0.07416648 0.12810929 0.13440049 0.004244368 -0.0024771264
-0.02069502 0.07766483 0.048774667 0.043022525 0.06348286 0.100833 0.01634147 0.15524934
0.14370127 -0.12462939 0.15591894 -0.0875837 0.012960589 -0.09363965 0.059114963 0.13498276
0.06916174 0.063719876 0.103866145 -0.12086026 0.04274069 -0.0063064187 0.12231679 0.0168091
0.042333715 -0.037675433 -0.1459873 -0.07043251 -0.038791936 -0.12865552 0.15590774 0.070038214
-0.03685512 0.07642761 -0.13910966 -0.13168813 -0.045396876 -0.059362825 0.0019054066 0.027623564
0.1319623 -0.11431976 0.1526466 0.034999978 -0.0022892547 -0.048987303 -0.04336726 -0.038419556
0.023493454 0.15300904 0.11678705 0.102329545 0.011382788 0.10087055 -0.040441725 -0.11570539
0.016299823 -0.10758282 0.08183187 -0.015359478 0.10655741 -0.0531206 0.03164323 -0.029460492
0.013030085 0.02979321 -0.13003846 -0.11349774

lstm2.bias_hh_l0 f4 [164]
00000000: 292a 06be 083f 02be cf17 8d3b dce9 a6bc
00000010: f1e7 a4bd 771d 80bd cc6f 5dbd 4610 6a3b
00000020: c9b7 893d 1dc0 c2bd a67f 163e 8774 50bd
00000030: 9032 f53b e49c 99bd 29b8 f03c 73d0 b83d
00000040: ce37 e23d 483e 973c bf26 12be 4f6a 2bbd
00000050: 89a8 74bd 52c7 673c 2c6d 0e3e 93ba 1abd
00000060: c209 b4bd be78 0bbe be1e 74bd 6699 063e
00000070: ba70 323c 4a68 a13d 883e fdbc 36e5 ddbd
00000080: 7c33 113e c125 033e 32d3 6bbb 8a8a 94bd
00000090: d38e dc3c 9144 d93d 77bc 22be b172 f3bc
000000a0: 4eae 90bd 8f33 15be 9a06 edbd c8e4 5a3c
000000b0: f576 7a3d ff64 d53b 4bdc 88bd 268e 8c3c
000000c0: 69d0 553d 78ea 21bd 1d39 e13d 7b23 05be
000000d0: bd24 15bd 3645 5bbd fbf5 c33d e4ec a43d
000000e0: 5c89 af3d 8c39 8d3d adf9 e8bc 35e6 91bd
000000f0: ab37 a43b bd80 243d 6d93 f7bd 6529 edbc
00000100: cda0 ebbc 30fa 9bbd 8f99 303d befb 153e
00000110: 1efc 053e 8f27 a83d 2abc 443d 2791 c1bc
00000120: 9228 0b3d 2070 ff3d 1f51 bfbc e09c 9e3d
00000130: a100 fabd 9430 fbbd 4f74 58bd c383 c4bc
00000140: 19ab 97bc 0ab2 db3d 48d4 16be d4b5 1d3e
00000150: cae8 0bbc a0f2 2d3d f3ec 14be 9771 d1bd
00000160: 1173 34bd fab4 0d3e 5522 c73d 00c6 133d
00000170: 51bf e0bd ec50 4c3d ef13 8e3b 2e97 143e
00000180: 4268 8cbd 7f21 273c 73a2 0dbe bcd4 1dbd
00000190: fa41 fabd e89d 5d3d d8a2 523d 23f5 cebd
000001a0: 7a73 163e 73b4 8dbd c1db 9f3d 4250 b93d
000001b0: 0dba 86bd f0b2 913d 248f f2bd 2c9c fabd
000001c0: 1f1a d73c 6933 abbc cf1c 01be 50a9 643d
000001d0: b457 b7bd 4379 c83b 7035 893d 80af 153e
000001e0: 2b77 0e3e 73dd da3d 8637 5dbd fba4 0c3e
000001f0: 1b93 4d3d f7d5 113e 89f0 d8bb bb38 19bd
00000200: a170 053e e159 98bd 2b42 0ebc f805 9c3c
00000210: 4c1e 17be 4770 b73d d940 123e b234 463d
00000220: a1fe 1b3d 5028 e53d 5331 cdbd dd12 61bd
00000230: 226f 54bd 9068 07be 03e4 2f3d c666 b2bd
00000240: cc19 a33d f906 e4bd 51cc af3c b7c0 0c3c
00000250: 1bbe c5bd dd25 14be d51d 0cbe c8bb e53c
00000260: 299c b03d bdad 0bbe 4f48 153e 0e51 1d3e
00000270: 9f9c d7bd 0932 c9bd ba2e e9bb 73ab ca3d
00000280: e5c7 6dbd f4e9 09be 4216 26bd be6a 1c3e
-0.1310202 -0.12719357 0.0043058167 -0.020375185 -0.08052052 -0.0625562 -0.054061696 0.0035715266
0.06724507 -0.09509299 0.14697132 -0.05089238 0.007482834 -0.07500628 0.02938469 0.090241335
0.110458 0.018462315 -0.14272593 -0.04184943 -0.05973104 0.014146643 0.13908833 -0.037775587
-0.08790924 -0.13620278 -0.05959963 0.13144454 0.010891134 0.0788122 -0.030913606 -0.10834734
0.14179796 0.1280737 -0.0035984037 -0.07252987 0.026923573 0.10608781 -0.15892206 -0.029717775
-0.07064496 -0.1457045 -0.11573525 0.01336021 0.061148603 0.006512284 -0.066826425 0.017157625
0.05220071 -0.039530247 0.109972216 -0.13001816 -0.03641199 -0.0535328 0.095684014 0.08052996
0.08571121 0.06895742 -0.028439367 -0.07123987 0.005011519 0.040161837 -0.12088666 -0.028950403
-0.0287632 -0.07616079 0.043115195 0.14646813 0.13084456 0.0821067 0.04803101 -0.023628784
0.033974238 0.12472558 -0.023354111 0.07744765 -0.12207151 -0.12265125 -0.052845296 -0.02398861
-0.018514203 0.10727318 -0.14729416 0.15401393 -0.008539388 0.042467713 -0.14543514 -0.10226744
-0.04405505 0.13838568 0.09723345 0.0360775 -0.10973991 0.04988186 0.0043358724 0.14510795
-0.06855823 0.010200857 -0.138315 -0.038532957 -0.12219615 0.05410567 0.05142483 -0.1010535
0.14692488 -0.069191836 0.078055866 0.09048511 -0.06578455 0.07114208 -0.11843708 -0.12236819
0.026257573 -0.020898538 -0.12608646 0.05582553 -0.08952275 0.006117971 0.066996455 0.14617729
0.13912646 0.10686769 -0.05400803 0.1373481 0.05018912 0.14241777 -0.006620471 -0.037407618
0.13031246 -0.07439018 -0.008682768 0.019045815 -0.14757651 0.08956962 0.1428255 0.048390098
0.03808463 0.111893296 -0.100191735 -0.05494963 -0.051863797 -0.13223481 0.04294206 -0.08711009
0.07963905 -0.111341424 0.02145973 0.008590869 -0.096554 -0.14467569 -0.13683255 0.028043643
0.08623535 -0.13640495 0.14578365 0.15362951 -0.1052792 -0.098239966 -0.007116166 0.098959826
-0.058051962 -0.13468152 -0.04054857 0.15275094
